…
2019-06-01 01:24:32.345575: W tensorflow/core/framework/allocator.cc:124] Allocation of 2097643520 exceeds 10% of system memory.
2019-06-01 01:24:40.568569: W tensorflow/core/framework/allocator.cc:124] Allocation of 1046282240 exceeds 10% of system memory.
2019-06-01 01:24:40.568955: W tensorflow/core/framework/allocator.cc:124] Allocation of 2097643520 exceeds 10% of system memory.
Found 11918 validated image filenames.
Found 11918 validated image filenames.
_________________________________________________________________
Layer (type)                 Output Shape              Param #   
=================================================================
conv2d (Conv2D)              (None, 413, 620, 64)      832       
_________________________________________________________________
max_pooling2d (MaxPooling2D) (None, 206, 310, 64)      0         
_________________________________________________________________
dropout (Dropout)            (None, 206, 310, 64)      0         
_________________________________________________________________
conv2d_1 (Conv2D)            (None, 206, 310, 32)      8224      
_________________________________________________________________
max_pooling2d_1 (MaxPooling2 (None, 103, 155, 32)      0         
_________________________________________________________________
dropout_1 (Dropout)          (None, 103, 155, 32)      0         
_________________________________________________________________
flatten (Flatten)            (None, 510880)            0         
_________________________________________________________________
dense (Dense)                (None, 256)               130785536 
_________________________________________________________________
dropout_2 (Dropout)          (None, 256)               0         
_________________________________________________________________
dense_1 (Dense)              (None, 4)                 1028      
=================================================================
Total params: 130,795,620
Trainable params: 130,795,620
Non-trainable params: 0
_________________________________________________________________
Epoch 1/10
  1/373 [..............................] - ETA: 2:06:01 - loss: 80407.46882019-06-01 01:24:47.094348: W tensorflow/core/framework/allocator.cc:124] Allocation of 2097643520 exceeds 10% of system memory.
…
